lightning_logs/qkitz470/checkpoints/epoch=4-step=35.ckpt (torch, 5705 bytes, 3 tensors)

layer.weight f4 [1, 10]
000000 1f 0e 00 3e 12 b4 4c bc d0 0c 11 3d cf c1 97 3e
       0.12505387 -0.012494104 0.03541261 0.29640052
000010 bd 90 41 3d bd 77 94 3e 1e 4a 4e 3e bf d1 70 3e
       0.047257174 0.28997603 0.20145461 0.23517512
000020 3f a2 69 be 41 e0 fd bd
       -0.22815798 -0.12396289

exp_avg f4 [1, 10]
000000 e4 dc 45 bf 3d c5 fc bf 9b 11 08 bf ba 76 94 bf
       -0.7729018 -1.9747692 -0.53151864 -1.1598732
000010 4d 3a d5 bf 69 36 83 bf 38 7c ee bf ab 1c 17 c0
       -1.6658417 -1.025098 -1.8631659 -2.3611248
000020 2a e7 2e c0 4f de b4 bf
       -2.7328591 -1.4130343

exp_avg_sq f4 [1, 10]
000000 92 bb 03 3e 14 fc 32 3e 12 0f 5b 3e 5d 53 87 3e
       0.12864521 0.17478973 0.21392468 0.2643079
000010 96 15 12 3e 39 9c b1 3d 01 b6 3d 3e f8 4b 8f 3e
       0.14266047 0.08672375 0.1852646 0.27987647
000020 3e 3f a0 3e a8 2f 78 3e
       0.3129825 0.2423693
